…
   "cell_type": "code",
   "execution_count": 18,
   "metadata": {
    "colab": {
     "base_uri": "https://localhost:8080/",
     "height": 425
    },
    "colab_type": "code",
    "id": "GGcs-W5Tgm1r",
    "outputId": "98fd7228-7c68-4c6c-b5ba-9c965b4fa74e"
   },
   "outputs": [
    {
     "name": "stdout",
     "output_type": "stream",
     "text": [
      "----------------------------------------------------------------\n",
      "        Layer (type)               Output Shape         Param #\n",
      "================================================================\n",
      "            Conv2d-1           [-1, 32, 13, 13]             320\n",
      "              ReLU-2           [-1, 32, 13, 13]               0\n",
      "            Conv2d-3             [-1, 64, 6, 6]          18,496\n",
      "              ReLU-4             [-1, 64, 6, 6]               0\n",
      "            Conv2d-5            [-1, 128, 2, 2]          73,856\n",
      "              ReLU-6            [-1, 128, 2, 2]               0\n",
      "           Flatten-7                  [-1, 512]               0\n",
      "           Dropout-8                  [-1, 512]               0\n",
      "            Linear-9                  [-1, 512]         262,656\n",
      "             ReLU-10                  [-1, 512]               0\n",
      "          Dropout-11                  [-1, 512]               0\n",
      "           Linear-12                   [-1, 10]           5,130\n",
      "================================================================\n",
      "Total params: 360,458\n",
      "Trainable params: 360,458\n",
      "Non-trainable params: 0\n",
      "----------------------------------------------------------------\n",
      "Input size (MB): 0.00\n",
      "Forward/backward pass size (MB): 0.15\n",
      "Params size (MB): 1.38\n",
      "Estimated Total Size (MB): 1.52\n",
…
